models/data.pth (torch, 5143 bytes, 6 tensors)

l1.weight f4 [8, 56]
000000 e3 ac 27 be 0d 36 b6 be 51 bb f2 3e 92 76 74 3e
       -0.16374545 -0.35588112 0.47408536 0.23873356
000010 a0 48 05 bf 3c df cb 3e a1 71 a3 3e 92 4d 94 3e
       -0.5206394 0.39818752 0.3192263 0.2896543
000020 c2 69 97 3e 48 6c e9 3e ba a6 58 3e 6f 94 9e 3e
       0.29572874 0.45590425 0.21157351 0.3097262
000030 42 03 02 3f d6 90 11 3f 7d 6f d0 3e 89 a0 09 3f
       0.5078622 0.5686163 0.4071006 0.5376058
000040 48 5b ca bd 5f 69 92 3e 27 33 85 3e 0d 55 e2 3e
       -0.09880692 0.28596017 0.2601559 0.44205514
000050 16 e8 a0 bd 9f 06 ed be 89 08 ed be 6a c0 db be
       -0.07856767 -0.46294114 -0.46295574 -0.42920238
000060 16 33 c6 3e 13 72 93 be 23 5f 34 3f d2 35 9c be
       0.3871085 -0.2879797 0.7045767 -0.30509812
000070 0c 54 1e 3f 73 3a 9f be 5e d7 7d 3e bf c5 f1 3e
       0.61846995 -0.3109928 0.24789187 0.4722118
000080 cd 20 f1 3d 40 f7 a4 3e ca 71 f2 bd 5a 6e 4f 3d
       0.117738344 0.32219887 -0.1183811 0.05064235
000090 0a 84 2c 3f 30 9c 5d 3e 0c e7 c9 3e d9 c7 4d 3e
       0.67388976 0.21641612 0.39434087 0.20095767
0000a0 c3 40 d0 3e bf 82 8d 3d a2 d5 0a 3f d4 08 ff 3e
       0.4067441 0.069097035 0.5423223 0.49811423
0000b0 de fe 80 bd af c4 ee 3e 10 97 3b be 56 7c 13 bf
       -0.06298612 0.46634433 -0.18319345 -0.57611597
0000c0 4d fa 61 be 22 74 17 3f 42 9e 05 3f cd 05 3f 3f
       -0.22068138 0.5916158 0.5219461 0.74618226
0000d0 bb 43 22 3e 10 e7 31 3f 05 ca a6 3e ed 5d 21 3e
       0.1584615 0.694932 0.32576004 0.15758486
0000e0 df c7 bf 3e 26 e5 a5 be 7f a7 c6 be e1 7a d6 be
       0.37457177 -0.3240139 -0.38799664 -0.41890624
0000f0 f9 26 11 3f 38 03 c0 3d ca a8 7f 3f 74 8b 58 be
       0.5670009 0.09375614 0.99866927 -0.21146947
000100 ec 27 8b be d2 2d b7 be 1c d9 8d be 90 09 e4 3e
       -0.27178895 -0.35777146 -0.27704704 0.44538546
000110 9e 1f cc bd dc f7 c5 3e 50 96 6e be c8 eb 4d 3e
       -0.09966968 0.38665664 -0.23299527 0.20109475
000120 b7 1d 40 be 88 c3 c3 3e e7 56 5e 3f 0d a5 da be
       -0.18761335 0.38235116 0.8685135 -0.4270405
000130 e7 ce ae 3e d9 2e 53 3f 55 d5 22 3f b1 06 3d 3f
       0.3414223 0.8249336 0.6360677 0.73838335
000140 39 b4 02 3e 91 bc f0 3e 39 8d 80 be 4f ce d7 be
       0.12764062 0.47018865 -0.25107744 -0.42149588
000150 95 f0 ae bd 0a 52 0b bf 0b 7b 42 3f fa e4 9e 3e
       -0.08541981 -0.54422057 0.75969 0.3103407
000160 f8 4f ca 3e ba 7c a3 be 16 06 ab be 18 7e d1 3e
       0.39514136 -0.31931096 -0.3340308 0.40916514
000170 cc 7a 0b bd c3 f5 f2 3e eb 9f e5 be 3e e7 94 be
       -0.034052655 0.47453126 -0.4484857 -0.29082674
000180 82 c1 5a be f1 7a 2d 3f 5e 89 cc be ba b8 a5 3e
       -0.2136288 0.6776572 -0.39948553 0.32367498
000190 18 41 8a be 97 f2 be 3d fe d4 97 be c4 c2 0a 3f
       -0.27002788 0.09323614 -0.29654688 0.5420344
0001a0 02 11 e7 3e 07 2b 3b 3e 42 54 8c 3e 0a ec b2 be
       0.45130163 0.18278132 0.27408034 -0.3494571
0001b0 f8 26 d2 3e f2 65 f2 3d 8b 96 56 be a3 54 e1 3e
       0.41045356 0.11835851 -0.20955865 0.44009885
0001c0 c6 b3 4b be 41 dc a3 be 1f 5f be be 59 a5 ae 3d
       -0.19892797 -0.32003978 -0.37181947 0.08527631
0001d0 6e 7c 39 3e c8 0a 80 3d 00 b3 3a 3f 50 df 4d be
       0.18113872 0.06252056 0.7292938 -0.20104718
0001e0 82 fe ff be 94 e6 32 be 38 70 cb be f7 99 4e 3f
       -0.49998862 -0.17470771 -0.39734054 0.8070368
0001f0 de 98 e5 3e 0c 5c 0b 3f c7 38 91 3e be 0d 4f 3f
       0.4484319 0.5443733 0.2836363 0.80880344
000200 72 0d f7 bd 74 c0 10 3f a8 ca 4a 3f d6 d5 40 3e
       -0.12063111 0.5654366 0.7921548 0.18831572
000210 da 6a 93 be b0 0f 32 3e 5a 30 58 3e 59 30 03 3f
       -0.2879246 0.17388797 0.21112195 0.5124565
000220 1c be e5 3e 69 8c 95 bc 52 74 ea 3e 2f f5 b7 be
       0.44871604 -0.01825543 0.4579187 -0.35929248
000230 b2 50 58 3e 17 58 d2 be af 6c 0d 3f c2 2d 3f 3f
       0.21124533 -0.41082832 0.55243963 0.74679196
000240 57 0f 38 3b a5 06 e8 be ce cc 86 be 1d 37 d8 3e
       0.0028085315 -0.4531757 -0.2632813 0.42229548
000250 90 d6 9b 3e 66 14 12 3f 91 88 29 be be e0 b4 be
       0.30437136 0.57062376 -0.16556002 -0.35327715
000260 e5 e2 9e be 9d f1 c3 3e 2a 41 0e 3f 2e 41 13 3f
       -0.31032482 0.38270274 0.5556818 0.5752133
000270 7b b4 73 be 4b a1 01 3f 60 cb 11 be 7d 93 43 bf
       -0.23799317 0.5063674 -0.14237738 -0.76396924
000280 72 02 8e be 94 62 d6 3e f1 07 6f 3f 0d 38 c0 3e
       -0.2773624 0.41872084 0.9337149 0.37542763
000290 5e d6 14 3f b7 a1 39 3f 45 36 b2 be cf 21 85 bd
       0.581396 0.7251238 -0.3480703 -0.06500589
0002a0 3e e7 f9 3e 79 93 02 3f 1a f7 d8 3e e0 0c 14 be
       0.48809236 0.51006275 0.42376024 -0.14458036
0002b0 e1 16 fe 3e 96 44 ea 3e 9b bc 2d be b3 ee 96 3e
       0.4962683 0.45755452 -0.16966479 0.29478988
0002c0 ce 3a d9 3e 53 9c 57 3e 8a f0 16 3f 89 0f a9 be
       0.42427677 0.21055727 0.58960783 -0.33019665
0002d0 d3 04 e3 bd 24 9a b7 be e7 fd 63 3d 71 6b ec be
       -0.110849045 -0.35859787 0.055662062 -0.4617572
0002e0 13 5a 7c 3e 0b ba 0a be a8 74 56 be 8e 27 96 bd
       0.24643736 -0.13547532 -0.20942938 -0.07331763
0002f0 1f ce a7 3e 4f 36 5a 3f 26 0a 39 3f 1a 32 89 3e
       0.32774445 0.8523912 0.7228111 0.26796037
000300 62 f0 10 3d ee e8 15 3f af d9 df be 29 b4 9b 3e
       0.035385497 0.5855855 -0.43720767 0.3041089
000310 4f c2 29 3c c9 f1 97 3e 2d c7 c9 be 96 2b e6 be
       0.010361268 0.29676655 -0.39409772 -0.44955128
000320 8b 91 13 3e e0 0b 64 3e dd 2b a0 3e cd 8b 9a be
       0.14410989 0.22270155 0.31283465 -0.30184785
000330 5d 16 9d bd 5c 42 a0 bc 05 bd b7 3e 49 8f aa 3e
       -0.07670281 -0.019562893 0.35886398 0.33312443
000340 b1 9f e0 3e f7 e4 8d be f2 ef 06 bf ee 5e 96 be
       0.43871835 -0.2771375 -0.5270988 -0.293693
000350 61 15 a9 3e cc 4c 36 be 2a c6 f6 3e 47 19 1e 3f
       0.33024123 -0.17802733 0.48198062 0.6175732
000360 79 dc 5b 3e 37 54 6f 3e 66 1a c6 be e5 ab 20 bf
       0.21470822 0.23371969 -0.38692015 -0.6276229
000370 b5 62 1d be fb 0b d8 be 35 c6 b2 3e d6 f4 12 3f
       -0.15369685 -0.4219664 0.34916845 0.5740484
000380 99 f8 89 be 6d d2 f2 3e 9d 1c a6 3e 1f 10 ad 3e
       -0.26947477 0.47426167 0.32443705 0.33801362
000390 04 f8 a4 be 97 46 8a 3e 87 0a c4 3e 6c db 62 3e
       -0.3222047 0.2700698 0.38289282 0.22154015
0003a0 70 37 ed 3d c1 37 82 3e 18 12 05 3e 23 4c 64 be
       0.115828395 0.25433162 0.12995183 -0.22294669
0003b0 e8 c0 0c 3f e5 1c 4a 3b 7b 94 aa 3e 5f e4 fc bd
       0.5498185 0.0030839976 0.33316407 -0.12348246
0003c0 11 f7 d3 3e bb 54 a0 be b0 76 ac 3e f2 d9 9a 3e
       0.41399434 -0.31314644 0.336843 0.30244404
0003d0 39 07 b1 bd 94 f6 dc be 9c fc dc be a4 8c 3a bf
       -0.08643956 -0.43156874 -0.43161476 -0.7287085
0003e0 cf 78 35 be a8 8c 6c be 08 85 11 3f 88 05 2f 3f
       -0.17721866 -0.23100531 0.56843615 0.68367815
0003f0 fd c0 60 bd cd 99 ad 3e 9d 1b 25 3e dc 13 81 3d
       -0.054871548 0.33906403 0.16123815 0.06302616

l1.bias f4 [8]
000000 67 0a ed 3e da f7 8a 3f fb 96 43 3f 4e 19 82 3f
       0.46297 1.0856888 0.7640225 1.0163972
000010 f9 f9 dc 3e 54 2e 49 3f e3 4e 2c 3f 93 0a 28 3f
       0.43159464 0.78586316 0.6730787 0.65641135

l2.weight f4 [8, 8]
000000 a7 ab 89 bf 40 ee 88 3d af c5 4c bf e3 93 46 3f
       -1.0755509 0.066860676 -0.7998914 0.7756941
000010 f4 a0 b9 bd 24 bf 87 3f f1 0e d1 bc 4a b0 ab 3f
       -0.090639025 1.0605206 -0.02551982 1.3413174
000020 19 16 26 3f 49 a8 7e bf a7 3b 13 bf 98 0f 0a 3f
       0.6487747 -0.9947553 -0.575129 0.53930044
000030 92 08 78 3f d3 1c 51 3f 4f a6 e5 3e 29 7f 3d 3d
       0.9688808 0.8168461 0.44853446 0.046263848
000040 8a 6b d5 3e 0c b1 09 bf 11 e9 c5 be 45 a8 c1 3d
       0.41683608 -0.5378578 -0.38654378 0.09455923
000050 33 cc 68 3f fa 7b c5 3e 72 71 68 3f 01 07 41 bf
       0.90936583 0.3857115 0.90798104 -0.7540131
000060 c0 f2 3e bf 67 79 4a 3f f3 b1 10 3e b8 ae 79 3f
       -0.7458916 0.79091495 0.14130382 0.97532225
000070 61 de 09 bf 04 67 9b 3f 3e a2 7e be 6d a6 07 3f
       -0.5385495 1.2140813 -0.24866578 0.5298832
000080 83 75 08 be b2 8a 92 3f 98 cb 05 be 01 69 a6 3f
       -0.13326077 1.1448576 -0.13065946 1.3000795
000090 85 63 ab 3e 8a f8 36 bf 92 15 80 3f c9 5c a6 3f
       0.33474365 -0.7147299 1.0006583 1.2997066
0000a0 f9 4a 4f bf 56 dd 1b 3f d3 c0 99 bf b0 68 45 3e
       -0.80973774 0.60884607 -1.201197 0.19278216
0000b0 e0 fe 7a bd 39 34 98 bf 1f d5 71 3f c0 a2 23 3f
       -0.061278224 -1.1890937 0.9446582 0.6392021
0000c0 66 0b 88 3e c6 43 7c 3e 4d 46 17 bf e8 53 40 3f
       0.26571196 0.24635229 -0.59091645 0.7512803
0000d0 50 aa 2e bf 1e f3 25 bf 1d 25 80 3f bf 00 f7 3e
       -0.68228626 -0.6482409 1.0011326 0.48242757
0000e0 6b f1 aa 3f 25 3e a1 3f 1a 7a c4 3f c1 4c d4 be
       1.3354925 1.259709 1.5349762 -0.4146481
0000f0 e2 63 94 3e 92 a1 9e 3f 37 44 e3 be f2 27 12 bf
       0.28982455 1.2393057 -0.4438798 -0.570922

l2.bias f4 [8]
000000 52 fc 8f 3d b3 ef 36 3e fc 41 57 3e 44 e4 40 3f
       0.07030548 0.17864875 0.21021265 0.75348306
000010 72 29 2b 3f c6 df 88 3c 08 52 75 bd 94 9a 53 3f
       0.66860116 0.016708266 -0.059892684 0.8265774

l3.weight f4 [8, 8]
000000 71 ad 02 bf 81 5a 62 bf 48 8b e6 be de 4a fc 3e
       -0.510459 -0.8841935 -0.45028138 0.4927587
000010 61 c6 c2 bf 85 84 2c bf 91 6b 0e bf b7 de d5 3e
       -1.521679 -0.6738971 -0.55632883 0.4177148
000020 ac b8 27 3f 67 4f 55 3f 23 11 22 be af e4 ac 3d
       0.6551616 0.83324283 -0.1582685 0.084420554
000030 88 b6 88 3e 3b 77 3a bf da 5a a0 bf 3d 82 a9 bf
       0.2670176 -0.7283818 -1.2527726 -1.324287
000040 48 2e d3 bf 20 91 47 bf 3b b6 37 bf 0d 73 c9 3e
       -1.6498499 -0.7795582 -0.71762437 0.3934559
000050 ec 0d 19 3f 2c 6c 97 bf 8a 82 d2 bf 43 74 92 3c
       0.5978687 -1.1829886 -1.6446087 0.017877704
000060 85 c9 db 3e ac ea 32 bf 1d 5c 28 bf ed 5a 15 3f
       0.42927185 -0.6988933 -0.65765554 0.58341867
000070 1f 9f a2 3e ec 47 80 bf 48 4a de 3d 0b 8a 1e bf
       0.31762025 -1.0021949 0.10854012 -0.61929387
000080 88 b2 b0 be b4 f6 0d 3f ce 42 47 3f ae 8c 5c bf
       -0.3451121 0.55454564 0.7783631 -0.8615216
000090 85 7c 5a bf 0a 53 6f bf 74 59 3a bf 25 05 7b 3e
       -0.8534625 -0.9348608 -0.72792745 0.24513681
0000a0 cb 8c 2a bf 8e fa 3b 3f 9e 11 33 3f 5d 42 be be
       -0.66621083 0.7342919 0.69948757 -0.37160006
0000b0 55 64 83 3e 7b b7 ce be 3e 2d 11 3f 0e 8c 41 bf
       0.25662485 -0.4037436 0.5670966 -0.7560433
0000c0 90 9c 92 3e 17 35 02 bf 87 ff 06 bf dd 8f 6a be
       0.28635073 -0.5086226 -0.52733654 -0.22906442
0000d0 f0 bf d2 3e 5d 64 75 3f 7c 74 65 3f 5d 55 aa bf
       0.41162062 0.9585627 0.89630866 -1.3307301
0000e0 eb db 2d be 1e b6 62 bf 4e 40 85 bf 19 c0 bf bf
       -0.16978423 -0.8855914 -1.0410249 -1.4980499
0000f0 4f f1 08 bf 31 b4 6b be d3 1a 21 bf 55 4f 2d 3f
       -0.5349321 -0.23017956 -0.62931556 0.67699176

l3.bias f4 [8]
000000 e4 6d e6 be 32 5f ac bd 5f d7 1d 3f e8 64 d0 bd
       -0.45005715 -0.084165946 0.61656755 -0.10175496
000010 da 54 ee bd 20 f3 15 bc c1 13 99 3d ed 52 93 3e
       -0.11637278 -0.009152204 0.07474471 0.28774205
